Namespace(anneal_iter=40000, anneal_rate=0.9, batch_size=32, beta=0.0, clip_norm=50.0, depthG=3, depthT=20, epoch=200, hidden_size=450, kl_anneal_iter=2000, latent_size=56, load_epoch=0, lr=0.001, max_beta=1.0, print_iter=10, save_dir='covid_model/autogen_vocab/', save_iter=50, step_beta=0.002, train='../data/covid/processed', vocab='../data/covid/autogen_vocab.txt', warmup=40000)
JTNNVAE(
  (jtnn): JTNNEncoder(
    (embedding): Embedding(331, 450)
    (outputNN): Sequential(
      (0): Linear(in_features=900, out_features=450, bias=True)
      (1): ReLU()
    )
    (GRU): GraphGRU(
      (W_z): Linear(in_features=900, out_features=450, bias=True)
      (W_r): Linear(in_features=450, out_features=450, bias=False)
      (U_r): Linear(in_features=450, out_features=450, bias=True)
      (W_h): Linear(in_features=900, out_features=450, bias=True)
    )
  )
  (decoder): JTNNDecoder(
    (embedding): Embedding(331, 450)
    (W_z): Linear(in_features=900, out_features=450, bias=True)
    (U_r): Linear(in_features=450, out_features=450, bias=False)
    (W_r): Linear(in_features=450, out_features=450, bias=True)
    (W_h): Linear(in_features=900, out_features=450, bias=True)
    (W): Linear(in_features=478, out_features=450, bias=True)
    (U): Linear(in_features=478, out_features=450, bias=True)
    (U_i): Linear(in_features=900, out_features=450, bias=True)
    (W_o): Linear(in_features=450, out_features=331, bias=True)
    (U_o): Linear(in_features=450, out_features=1, bias=True)
    (pred_loss): CrossEntropyLoss()
    (stop_loss): BCEWithLogitsLoss()
  )
  (jtmpn): JTMPN(
    (W_i): Linear(in_features=40, out_features=450, bias=False)
    (W_h): Linear(in_features=450, out_features=450, bias=False)
    (W_o): Linear(in_features=485, out_features=450, bias=True)
  )
  (mpn): MPN(
    (W_i): Linear(in_features=50, out_features=450, bias=False)
    (W_h): Linear(in_features=450, out_features=450, bias=False)
    (W_o): Linear(in_features=489, out_features=450, bias=True)
  )
  (A_assm): Linear(in_features=28, out_features=450, bias=False)
  (assm_loss): CrossEntropyLoss()
  (T_mean): Linear(in_features=450, out_features=28, bias=True)
  (T_var): Linear(in_features=450, out_features=28, bias=True)
  (G_mean): Linear(in_features=450, out_features=28, bias=True)
  (G_var): Linear(in_features=450, out_features=28, bias=True)
)
Model #Params: 5070K
[10] Beta: 0.000, KL: 129.99, Word: 19.45, Topo: 65.65, Assm: 60.41, PNorm: 99.21, GNorm: 50.00
[20] Beta: 0.000, KL: 206.79, Word: 14.63, Topo: 74.39, Assm: 62.09, PNorm: 99.58, GNorm: 30.20
CUDA out of memory. Tried to allocate 15.60 GiB (GPU 0; 15.78 GiB total capacity; 5.11 GiB already allocated; 6.00 GiB free; 3.66 GiB cached)
…
